snapshots/AODNet.pth (torch, 10623 bytes, 10 tensors)

e_conv1.weight f4 [3, 3, 1, 1]
00000000: ae70 973d 06a1 383e 4552 8c3e c367 e2bd
00000010: a713 773d e253 523e e34c 0100 5d80 0080
00000020: 0643 0080
0.07394539 0.18030176 0.27406517 -0.11054947 0.060321476 0.20539811 1.19417e-40 -4.6048e-41
-2.4043e-41

e_conv1.bias f4 [3]
00000000: a352 a83e 74a3 6dbd 4ec0 1380
0.32875547 -0.05801721 -1.81386e-39

e_conv2.weight f4 [3, 3, 3, 3]
00000000: f205 0180 2259 0100 c62e 0100 eeab 0180
00000010: b6a4 0000 4c57 0180 b4a2 0180 1b29 0100
00000020: 4669 0100 9d6f 0080 9791 0080 12df 0100
00000030: b2fd 0080 1513 0180 66b1 0100 b0b8 0100
00000040: 7f02 0100 b2b8 0180 73f9 0080 1c2c 0100
00000050: 4f33 0000 9480 0000 8b4a 0080 204c 0000
00000060: 6b89 0080 0d22 0000 a044 0080 63b3 c0b8
00000070: bd34 303d 5e29 b0bc f6a2 cb3c 0dbc 973d
00000080: 6d84 9bbb 3b51 02bc f995 083d 142e 043c
00000090: ad49 c43d 8135 f63d 40e7 be3d 4235 c53d
000000a0: 2be9 1d3e ba6a c43d 6287 d33d 2f87 003e
000000b0: 087f af3d a3c0 0080 dabc 0000 4fa6 0180
000000c0: e5be 0080 bb5e 0080 113e 0080 bb13 0180
000000d0: 148f 0000 5696 0180 4012 0100 d97a 0080
000000e0: b44e 0100 874c 0080 df3d 0100 3034 0280
000000f0: 4ea1 0080 3a02 0100 9f1e 0100 1a8a 0100
00000100: d540 0180 5346 0100 d190 0100 eb30 0180
00000110: a8ad 0180 e5fb 0180 bdf0 0000 5db4 0080
00000120: e456 0000 5012 0100 7dc3 0180 3fc8 0080
00000130: c7b5 0080 194b 0180 321e 0080 7069 0000
00000140: 5be7 0180
-9.3968e-41 1.2381e-40 1.08615e-40 -1.53512e-40 5.9087e-41 -1.23152e-40 -1.50202e-40 1.06581e-40
1.296e-40 -4.004e-41 -5.2228e-41 1.71858e-40 -9.1009e-41 -9.8681e-41 1.55474e-40 1.58089e-40
9.2731e-41 -1.58092e-40 -8.9486e-41 1.07659e-40 1.8406e-41 4.6125e-41 -2.6741e-41 2.7309e-41
-4.9296e-41 1.2215e-41 -2.4618e-41 -9.188687e-05 0.043019045 -0.0215041 0.02485798 0.07408915
-0.004746011 -0.007953937 0.03334615 0.0080676265 0.09584365 0.12021924 0.09321451 0.09629299
0.15420978 0.09590669 0.103285566 0.12551568 0.08569151 -6.9105e-41 6.7747e-41 -1.51496e-40
-6.848e-41 -3.3983e-41 -2.2265e-41 -9.8913e-41 5.1327e-41 -1.45766e-40 9.8382e-41 -4.407e-41
1.20069e-40 -2.7453e-41 1.1403e-40 -2.02392e-40 -5.7865e-41 9.2634e-41 1.0282e-40 1.41377e-40
-1.15093e-40 1.17063e-40 1.43786e-40 -1.09384e-40 -1.54132e-40 -1.82198e-40 8.636e-41 -6.4702e-41
3.117e-41 9.8405e-41 -1.61963e-40 -7.1835e-41 -6.521e-41 -1.18775e-40 -1.0832e-41 3.7824e-41
-1.7483e-40

e_conv2.bias f4 [3]
00000000: ad48 6500 81c0 cf3d dc43 5000
9.301456e-39 0.10144139 7.371183e-39

e_conv3.weight f4 [3, 6, 5, 5]
00000000: d58e 7abd 5419 033b d907 ca3c 3e8e 103b
00000010: de10 26bd 6e2b 33bd cdbf 3cbc 60d4 8e3d
00000020: 8d80 a4bb aa07 0ebd b08a 68bc 5cc0 f03c
00000030: ba58 8c3d 781b af3c b574 31bc 726f 10bd
00000040: 9208 4abc 8fc6 873d 4422 7f3c 6c3a 27bb
00000050: e916 85bc 95ed 6ab9 b32e 513b c27d 943b
00000060: 407a 82bd afbf 943d 25dc e13d b0c2 053e
00000070: d33c b83d 62e7 9b3d 2acd 923d 541a f33d
00000080: bb1e 0c3e ea28 c23d c2fc ba3d ba24 c33d
00000090: b9ea d73d 107a 0e3e aa5e 073e 6731 b43d
000000a0: 7220 d73d 4250 a43d f234 1d3e ea73 ca3d
000000b0: e6e5 c03d a4ab 773d 0be8 b23d 4a1e 0b3e
000000c0: ec81 d03d 6e22 a73d 8784 0100 848b 0000
000000d0: d9b6 0080 ae13 0200 904c 0100 d925 0000
000000e0: 1b0f 0100 e7c7 0080 dac8 0000 39e7 0080
000000f0: ddd7 0180 2307 0080 2aef 0080 6bc8 0000
00000100: e163 0080 bc93 0180 ce1d 0000 1952 0180
00000110: ae06 0000 9c3b 0100 504b 0080 1f6f 0100
00000120: 65bd 0080 9590 0080 3431 0100 7a39 0180
00000130: 36e6 0000 39a7 0000 5c03 0280 887a 0000
00000140: be4f 0080 03dd 0000 6df7 0080 ee66 0100
00000150: 1fe5 0080 7125 0180 df39 0000 3c0f 0100
00000160: 6d1a 0180 5429 0080 710c 0180 128f 0000
00000170: b796 0000 6187 0080 3899 0180 2f71 0180
00000180: dcee 0100 3b3f 0100 a3b2 0000 87d5 0080
00000190: 6840 90bb 3335 28bc 1a13 f93c 7106 08bc
000001a0: 1876 0dbd 0e41 e13b ea71 813c fcab 813d
000001b0: 5aaa 3f3d b2f7 3bbc b10e a83b bd13 cb3c
000001c0: c3c3 963d 8183 1b3d 43b8 ac3c e0f7 5fbc
000001d0: 8624 9c3c 45ab 253d 9017 be3c 6e70 9f3c
000001e0: 49bc 02bc 40fb 32bc 0e96 563d dc6f 543c
000001f0: a6a8 dbbc 8702 0200 3c2f 0000 69d1 0180
00000200: a97b 0080 a906 0200 05a5 0080 d0d1 0080
00000210: 2767 0100 b30d 0080 d585 0080 d72f 0100
00000220: ef45 0180 c7c4 0000 e59b 0100 1ba0 0180
00000230: 23a5 0100 83f2 0180 2186 0000 1283 0180
00000240: 360b 0280 acba 0180 eae2 0180 db62 0000
00000250: 7f25 0080 6131 0080 f785 a5bd ec21 35bc
00000260: 1b0e ac3c 619e 98bb 358e b6bd 50a6 58bd
00000270: 0ff3 3ebc 5275 833d 80c5 33bc 5773 03bd
00000280: 82d0 293a 913e 043d 8d55 b33d ef0d bf3c
00000290: f946 86bc 70d1 85bc 619f 003c 5ba6 9b3d
000002a0: 6e7b c63b b9f7 51bd fe53 6fbd 47bb 21bc
000002b0: b808 453d 39b4 ddbc 715f e3bc e3d3 a83d
000002c0: 5122 9e3d 62f5 ee3d db14 c63d c9e0 683d
000002d0: 4ad1 9c3d 2db5 b83d 70f6 073e 741b ac3d
000002e0: 1286 a43d 2a96 af3d e8d6 0b3e 1977 113e
000002f0: 8948 bc3d 3c73 bd3d b53a 973d 3814 c33d
00000300: 1bfa ec3d 5583 bf3d 804f b43d 60dc 833d
00000310: 10f9 b03d 2eb9 f23d d1db bd3d c9b7 8a3d
00000320: b7c8 0100 822a 0080 faa7 0080 89d4 0000
00000330: b6bd 0080 9f91 0180 3a08 0000 00c9 0000
00000340: 5da4 0100 3d02 0100 a015 0100 5091 0180
00000350: 1538 0080 b4a0 0080 ef43 0000 dda5 0100
00000360: 5f26 0080 a47e 0000 eb15 0100 d56f 0180
00000370: 0a37 0100 cf89 0080 8bc8 0080 c921 0000
00000380: 222c 0100 be35 0000 42ae 0000 08f7 0000
00000390: 110b 0180 9577 0100 f8b0 0180 2974 0100
000003a0: 3576 0080 4b52 0100 3da1 0180 0f51 0100
000003b0: d9ba 0180 50dd 0000 5fba 0180 ee57 0000
000003c0: 8a80 0000 f0a3 0080 c7b1 0000 8945 0180
000003d0: 20bc 0080 a506 0100 edda 0180 7904 0280
000003e0: 38a9 0080 5ad8 0000 473b 0abd 9e9a 89bc
000003f0: 0827 0b3d 65dd 963c 1ac5 82bc cba8 92bc
-0.06117137 0.002000411 0.024661945 0.002205744 -0.04054343 -0.04374259 -0.011520338 0.06974101
-0.0050202073 -0.034675278 -0.014193222 0.0293886 0.06852861 0.021375403 -0.010831048 -0.035262533
-0.012331145 0.06629669 0.015572134 -0.0025517 -0.016246276 -0.00022404485 0.0031918704 0.004531593
-0.063709736 0.07263123 0.11028317 0.13062549 0.08995976 0.07612492 0.07168038 0.11870256
0.13683598 0.0948046 0.09130241 0.095284894 0.10542817 0.1391375 0.13219705 0.08798485
0.10504235 0.080231205 0.15352228 0.0988539 0.0941885 0.060466424 0.08735665 0.13585773
0.10181031 0.08160864 1.39377e-40 5.0049e-41 -6.5593e-41 1.90731e-40 1.19301e-40 1.3577e-41
9.7254e-41 -7.1711e-41 7.2052e-41 -8.2947e-41 -1.69273e-40 -2.56e-42 -8.5796e-41 7.1896e-41
-3.583e-41 -1.44833e-40 1.0692e-41 -1.21287e-40 2.396e-42 1.1322e-40 -2.7017e-41 1.31698e-40
-6.7942e-41 -5.1866e-41 1.09486e-40 -1.12454e-40 8.2584e-41 5.9988e-41 -1.84876e-40 4.3956e-41
-2.8606e-41 7.9284e-41 -8.876e-41 1.2876e-40 -8.2193e-41 -1.05267e-40 2.076e-41 9.73e-41
-1.01315e-40 -1.4826e-41 -9.6299e-41 5.1324e-41 5.4066e-41 -4.8565e-41 -1.468e-40 -1.32438e-40
1.77522e-40 1.14518e-40 6.4083e-41 -7.6599e-41 -0.004402209 -0.01026659 0.030404616 -0.008302317
-0.03453645 0.00687421 0.015801389 0.063316315 0.04679332 -0.011472629 0.0051287045 0.024789685
0.07361557 0.03796721 0.021083957 -0.013669938 0.019060384 0.04044654 0.023204595 0.01946279
-0.007979461 -0.0109241605 0.052389197 0.0129661225 -0.026813816 1.84578e-40 1.6945e-41 -1.66958e-40
-4.4361e-41 1.8606e-40 -5.9198e-41 -7.5267e-41 1.2884e-40 -4.914e-42 -4.801e-41 1.08997e-40
-1.16923e-40 7.059e-41 1.4776e-40 -1.4927e-40 1.51075e-40 -1.78832e-40 4.8116e-41 -1.38855e-40
-1.87693e-40 -1.58801e-40 -1.73237e-40 3.5463e-41 -1.3451e-41 -1.7714e-41 -0.080821924 -0.011055451
0.02100282 -0.004657552 -0.089138426 -0.052892983 -0.011654629 0.064188614 -0.010972381 -0.03209242
0.00064779085 0.03228623 0.08756552 0.023322074 -0.016391264 -0.01633522 0.007850499 0.07600089
0.0060571944 -0.051261637 -0.05842971 -0.009871311 0.048104018 -0.027063476 -0.027755471 0.08243539
0.07721389 0.11667897 0.096719466 0.056854997 0.07657106 0.090189315 0.13277602 0.08403674
0.080333844 0.085735634 0.13656199 0.14205588 0.091935225 0.09250495 0.07384244 0.09525341
0.11571141 0.093512215 0.08804226 0.064385176 0.08641255 0.118517265 0.09270442 0.067733355
1.63838e-40 -1.5249e-41 -6.0259e-41 7.6243e-41 -6.8055e-41 -1.44075e-40 2.951e-42 7.2105e-41
1.50798e-40 9.2638e-41 9.9593e-41 -1.43964e-40 -2.0118e-41 -5.765e-41 2.437e-41 1.51336e-40
-1.3765e-41 4.543e-41 9.9698e-41 -1.31953e-40 1.1158e-40 -4.9436e-41 -7.1941e-41 1.212e-41
1.07667e-40 1.9279e-41 6.2512e-41 8.8618e-41 -9.5805e-41 1.34733e-40 -1.5532e-40 1.33506e-40
-4.2405e-41 1.21357e-40 -1.49677e-40 1.20914e-40 -1.58864e-40 7.9392e-41 -1.58693e-40 3.1543e-41
4.6111e-41 -5.881e-41 6.3774e-41 -1.1678e-40 -6.7487e-41 9.4219e-41 -1.70371e-40 -1.85275e-40
-6.0704e-41 7.7612e-41 -0.033747938 -0.01679736 0.03397277 0.018416116 -0.015963126 -0.017902752

e_conv3.bias f4 [3]
00000000: 4dc3 b53d eedb d13d e0e0 0000
0.08875141 0.102470264 8.067e-41

e_conv4.weight f4 [3, 6, 7, 7]
00000000: fbf3 0080 e328 0100 ca5c 0000 5c01 0080
00000010: 512d 0100 51ea 0180 aaa7 0100 8cb7 0080
00000020: d511 0180 a245 0180 9c14 0280 c170 0080
00000030: a6e0 0000 4a23 0080 2ac8 0000 4371 0000
00000040: 3729 0180 f048 0100 3240 0180 0a48 0100
00000050: 2586 0000 1493 0080 7f21 0000 64dc 0000
00000060: 157d 0000 f578 0080 c425 0080 aaea 0080
00000070: 2a26 0000 762f 0100 4d7f 0180 7f58 0100
00000080: 4b5c 0100 7e53 0100 b659 0180 6ad0 0080
00000090: 171d 0180 4d5b 0180 f628 0100 f492 0080
000000a0: 0521 0080 3bda 0000 c084 0180 e998 0000
000000b0: 4eea 0000 8e0b 0100 015d 0180 ed90 0000
000000c0: 4429 0000 4e91 bcbb 2d0b a7bb 3e4e d13b
000000d0: 7c25 283d d8d8 093c a93b 89bb c8b9 66bc
000000e0: b59b aabb 093a 0bbc c270 883c 4211 4c3d
000000f0: e4b3 963c 3592 dabb ebaf 1fbc 1b78 313c
00000100: 7967 8b3c 192a e93c 348f a83d 2c64 023d
00000110: 12be a3b7 e386 053c e906 d93c 1adf 063d
00000120: cb74 3d3d 043b ac3d 0d8e 0b3d b074 073d
00000130: b28f 063d f1c6 283c f886 2d3c bffd f73c
00000140: d1ba 503d 56d7 023d b22c c03b 250d c83c
00000150: 90b0 d93b d8f6 8abb ea5f 8c3c 1e0c 483d
00000160: 3537 8e3c 229b aabb 5694 93bc 655f 5ebc
00000170: 838d 50bc 6486 c03b d7d5 4d3d 44d9 b03c
00000180: 6304 77bc c146 e2bb ea09 0000 6398 0180
00000190: bd88 0100 c017 0180 4298 0100 a34b 0180
000001a0: 7dfc 0080 f647 0180 545e 0080 62c8 0180
000001b0: e81b 0100 635c 0100 1ac2 0000 300a 0280
000001c0: fd15 0280 e268 0000 a4a3 0180 f02d 0000
000001d0: 3535 0180 a62a 0100 bd16 0180 b71a 0100
000001e0: 08e6 0100 0af2 0180 06a9 0000 efe4 0100
000001f0: 1932 0180 d771 0000 0231 0180 5127 0200
00000200: 6572 0100 52bb 0080 65aa 0000 35ed 0100
00000210: 6428 0100 ed3c 0180 7d13 0080 3b10 0100
00000220: ff9a 0080 dbda 0100 d6f1 0080 e52c 0200
00000230: ec9b 0080 94fa 0100 e584 0180 f5d6 0080
00000240: 1b29 0000 6a5a 0100 fadc 0000 b099 9b3b
00000250: 8a31 be3b ca87 9a3c 0596 7f3d 6243 f73c
00000260: ca7b 163c 3eff cd3c 5297 343c 4163 f53c
00000270: b2c3 a13c e0bf 8e3d 38b3 103d 2d83 c6bb
00000280: 3c82 e63c dde4 e73c eee5 ef3c 5a6d 113d
00000290: 61e5 a33d d204 773d cd43 013d 2d12 f93c
000002a0: 241a 2e3d b26d 003d 43fe a73d b1e9 f53d
000002b0: f513 473d d69f fd3c 9543 303d a036 133d
000002c0: 8792 af3b dbcf 343d 6814 9d3d 26b8 443d
000002d0: 1f62 083d 32ab 063d b037 873c 3585 643c
000002e0: 703c 473d fe6e 933d 5cab 113d 375e fc3b
000002f0: 1318 0c3c 2b67 f03b 5f11 6c3b 5617 003d
00000300: a230 903d d1cc 113d 0e89 e53b c163 353c
00000310: 6006 b23c 4159 87bb 8e8b 4d3d 6557 873d
00000320: 99ec 243d 13a0 bfbb fe4e 08bc fad5 e23c
00000330: dfac 9c3b 5687 f73c 8eaa 8e3d 2f29 043d
00000340: 73c8 9d3c b8c1 8a3c f15e 343d 95c7 d23c
00000350: 29c0 2e3d 08d4 ea3d a8c3 443d 9412 073d
00000360: 1dba 083d cc47 423d 16fb 203d 7082 913d
00000370: c400 da3d f369 993d e7d1 3e3d 9984 473d
00000380: bc63 2e3d a4f7 a73c 331b 573d 13d0 a23d
00000390: 2e7a 733d f051 0d3d 4d49 023d dc13 143c
000003a0: 8053 b43b be70 153d 7e4e 933d 37b4 243d
000003b0: 4e70 6f3c ca25 4b3c ae7a 823c 6737 4f3a
000003c0: d6fc 323d dc6b 903d 0fc9 d53c 6c7c 2b3c
000003d0: 6736 54bc 9c51 0080 e36c 0000 a196 0180
000003e0: c7b2 0100 6e88 0080 00d9 0080 bb10 0100
000003f0: 1d5f 0100 c782 0080 3860 0180 ca7f 0000
-8.7524e-41 1.06503e-40 3.3286e-41 -4.88e-43 1.08092e-40 -1.75892e-40 1.51982e-40 -6.5844e-41
-9.8232e-41 -1.16815e-40 -1.91064e-40 -4.0448e-41 8.0589e-41 -1.266e-41 7.1805e-41 4.063e-41
-1.0662e-40 1.18e-40 -1.14864e-40 1.17678e-40 4.8122e-41 -5.2762e-41 1.2016e-41 7.9061e-41
4.4871e-41 -4.3391e-41 -1.3548e-41 -8.4182e-41 1.369e-41 1.08861e-40 -1.37502e-40 1.23582e-40
1.24944e-40 1.21787e-40 -1.24018e-40 -7.4765e-41 -1.02271e-40 -1.24588e-40 1.0653e-40 -5.2717e-41
-1.1845e-41 7.8286e-41 -1.39457e-40 5.4854e-41 8.4053e-41 9.598e-41 -1.25199e-40 5.199e-41
1.4803e-41 -0.0057546264 -0.005097768 0.006387501 0.041051373 0.008413516 -0.0041880202 -0.01408238
-0.00520655 -0.008497723 0.01665533 0.049821146 0.018396325 -0.0066702613 -0.009746532 0.010831858
0.017017113 0.028462457 0.08230439 0.031833813 -1.9519623e-05 0.008149835 0.026492553 0.03292761
0.04625396 0.08409694 0.034071017 0.033070266 0.032851882 0.010301338 0.010591261 0.030272363
0.050959412 0.03194364 0.005864703 0.02442033 0.0066433623 -0.004240852 0.01713558 0.04883968
0.01736031 -0.0052064816 -0.018015068 -0.0135725485 -0.0127290515 0.0058753956 0.05025276 0.021587975
-0.0150767295 -0.006905407 3.556e-42 -1.46502e-40 1.40888e-40 -1.00355e-40 1.46455e-40 -1.18969e-40
-9.0576e-41 -1.1765e-40 -3.3839e-41 -1.6372e-40 1.01846e-40 1.24978e-40 6.963e-41 -1.87326e-40
-1.91559e-40 3.7625e-41 -1.50539e-40 1.6479e-41 -1.10923e-40 1.07135e-40 -9.9992e-41 1.01419e-40
1.74355e-40 -1.78663e-40 6.0634e-41 1.73961e-40 -1.09807e-40 4.0838e-41 -1.09416e-40 1.97775e-40
1.32873e-40 -6.7198e-41 6.1126e-41 1.7693e-40 1.06325e-40 -1.13692e-40 -6.991e-42 9.7658e-41
-5.5602e-41 1.70346e-40 -8.6754e-41 1.99776e-40 -5.5934e-41 1.81726e-40 -1.39509e-40 -7.7112e-41
1.4746e-41 1.2427e-40 7.9271e-41 0.0047485456 0.0058042454 0.018863577 0.06239893 0.030183498
0.009184787 0.025146123 0.011022406 0.029954555 0.019746635 0.06970191 0.035327166 -0.006058118
0.028138272 0.028307373 0.029284444 0.035504676 0.08002735 0.06030733 0.0315588 0.030404175
0.0425054 0.031354614 0.082027934 0.12007464 0.048603017 0.030960005 0.0430332 0.035940766
0.0053580436 0.04414354 0.07669908 0.04802718 0.0332967 0.03287811 0.016506046 0.013947775
0.048641622 0.071989045 0.03556381 0.007701661 0.008550662 0.0073365173 0.0036021096 0.031272255
0.07040526 0.03559572 0.0070048636 0.0110711465 0.021731555 -0.004130513 0.050181918 0.06608466
0.0402647 -0.0058479398 -0.008319614 0.027689923 0.00478135 0.0302159 0.069661245 0.03226584
0.01926062 0.016938075 0.044035856 0.025729934 0.042663727 0.11466223 0.048038155 0.0329767
0.033380616 0.047431752 0.039301954 0.07104957 0.10644677 0.07490911 0.046586897 0.04871044
0.042575583 0.020503826 0.052516174 0.07949843 0.05944269 0.03450197 0.031808186 0.009037938
0.005503118 0.036484472 0.071927056 0.04021093 0.014614178 0.012399146 0.015927639 0.0007904679
0.043698154 0.070518225 0.026096849 0.010466676 -0.012952424 -2.9276e-41 3.9061e-41 -1.45871e-40
1.55969e-40 -4.8942e-41 -7.7845e-41 9.7837e-41 1.25956e-40 -4.6914e-41 -1.26352e-40 4.5842e-41

e_conv4.bias f4 [3]
00000000: e037 0a3e 0da3 963d ee3b 003e
0.13497877 0.07355318 0.12522861

e_conv5.weight f4 [3, 12, 3, 3]
00000000: df8d 6c3d ec82 ed3d dd6b 423d 22d5 8f3d
00000010: d7fe 323e 6550 cf3d a9cd 6e3d 580a 003e
00000020: 7e21 8f3d 811d af3b abe4 8c3c a186 b03b
00000030: a3b3 393c 04c2 d23c 90d1 3c3c 02f3 af3b
00000040: a7e8 9f3c e93f e63b 7d7d 0080 398b 0100
00000050: ef90 0080 094f 0180 4c7c 0100 031d 0180
00000060: e867 0100 5987 0100 0945 0180 f609 0280
00000070: f518 0000 8708 0200 dc8b 0000 82e8 0000
00000080: 9426 0100 a9bf 0000 9595 0080 b284 0080
00000090: c0be 0a3d 0885 863d e9f4 f63c ad87 593d
000000a0: 0e25 ac3d b30e 393d 2c69 123d 50d9 8d3d
000000b0: a954 0d3d 4f61 0100 aa61 0100 ff27 0180
000000c0: 792e 0180 6b37 0000 a602 0280 5123 0280
000000d0: cab2 0080 12f9 0000 9975 5f3d 9246 a03d
000000e0: ec53 d33c 0ed7 103d 6f86 b63d 1102 333d
000000f0: 570f 123d 6b4e 883d cbdb 0c3d 7a16 133d
00000100: 6a80 a03d 5882 253d 1e44 5c3d 1ff9 c73d
00000110: ce1a 6c3d ea76 163d d131 a63d f26e 303d
00000120: 15b3 0080 6867 0100 4004 0180 50a6 0080
00000130: 46fa 0080 e001 0100 7183 0080 9a10 0180
00000140: b65a 0100 665e 0f3d 04c9 7b3d 6a25 fd3b
00000150: 3b74 603d c61f bc3d ee2a 563d b8ea 2f3d
00000160: 2a4e a53d 504a 5b3d 963f 533a 2871 ff3c
00000170: 0329 58bb 2122 883c 5d23 403d ab57 4c3c
00000180: 1db3 b93b 56d0 123d 3a08 9c3a 80fc 0c3d
00000190: deaa 523d c5e3 4a3d 2234 403d 8b9f a83d
000001a0: aafe 1f3d ff30 3c3d 4370 bb3d 3121 583d
000001b0: f6ca fb3c 08c3 fc3d 72af 0b3c 4174 b63d
000001c0: 1265 433e d9aa ee3d 389f 233d 23f3 f93d
000001d0: 454f 023d f41c e13c 95fd 4e3d 65fc fd3c
000001e0: f438 2f3d 7f4d 833d 07ed 2e3d 4fba ec3c
000001f0: 40df 543d 219d f53c c376 0080 4144 0080
00000200: 9e2b 0000 f898 0000 f084 0180 a220 0080
00000210: 1f18 0100 f406 0080 c332 0000 1d7b 0080
00000220: e8bd 0080 8db2 0000 8d06 0280 870c 0280
00000230: a412 0000 429b 0180 4578 0000 2eef 0080
00000240: 67b4 ba3c fd28 963d c413 fc3c 62fb 403d
00000250: 9cc9 db3d 1b9d 5b3d 9179 403d e180 9d3d
00000260: 1dd1 1b3d b30b 0180 8936 0180 fa21 0180
00000270: 8e14 0200 f81b 0280 329b 0180 39a6 0100
00000280: f3be 0000 3efc 0000 7892 4f3d 39c1 dd3d
00000290: 0b08 653d a596 b93d 01f7 f53d c212 b53d
000002a0: 17d6 833d 732e cc3d 8d87 6f3d c3b2 413d
000002b0: b5cc db3d 236c 1f3d 8831 af3d 3845 053e
000002c0: 898b b83d 3d20 8d3d 86ff ed3d 5da4 553d
000002d0: c39e 0000 e3d1 0000 c206 0100 6a9c 0000
000002e0: 340f 0080 4946 0180 fe12 0000 ca5d 0100
000002f0: d1ce 0080 9ee1 2b3d a650 da3d 2ab7 b93c
00000300: 4fa6 903d 00a3 d83d e6e3 593d ff69 563c
00000310: 05d8 c03d 4d5f 0b3d f66e 09bc 3634 063d
00000320: fb48 4cbc d6da 893c dee1 6d3d 6b2a 513c
00000330: 58d8 64bb 516a 1a3d 4a89 f6bb 59e6 263d
00000340: 21a6 c63d 6f54 7d3d 8cf0 b73d 63d7 ec3d
00000350: 824f 833d c0e0 c33c a41b f13d 7cde e83c
00000360: f7d8 273d d1f4 0d3e adee 233d b000 cb3d
00000370: 10f2 493e 0b4d c93d 0fdd 203d 4867 0c3e
00000380: 3bc4 1d3d e67d 293d aa34 8a3d 05b6 273d
00000390: c15c 6a3d 5ad2 ab3d 0425 693d 37a3 233d
000003a0: 60b7 873d cca7 223d 6c4e 0180 eaca 0100
000003b0: c202 0000 1631 0180 7417 0180 1bdb 0080
000003c0: ebff 0000 1135 0080 0dbe 0080 670b 0280
000003d0: 52a6 0000 5dae 0080 9496 0100 0749 0180
000003e0: 39a3 0080 dd58 0180 4a30 0200 d367 0100
000003f0: 47f8 223d a8c1 bf3d 86f2 1f3d 9e0e 8d3d
0.057752486 0.11597237 0.047466148 0.07023074 0.17480026 0.10122756 0.0583016 0.12503946
0.0698881 0.0053440933 0.017198881 0.0053871428 0.011334333 0.02572728 0.011524573 0.005369545
0.019520117 0.0070266617 -4.5017e-41 1.41779e-40 -5.1992e-41 -1.20188e-40 1.36425e-40 -1.02243e-40
1.2911e-40 1.40389e-40 -1.166e-40 -1.87244e-40 8.953e-42 1.8673e-40 5.0172e-41 8.3408e-41
1.05675e-40 6.8755e-41 -5.366e-41 -4.7602e-41 0.03387332 0.065683424 0.03014608 0.053107906
0.08405505 0.045180034 0.03574483 0.06926215 0.034504566 1.26743e-40 1.26871e-40 -1.06183e-40
-1.08507e-40 1.988e-41 -1.84621e-40 -1.9634e-40 -6.4137e-41 8.935e-41 0.05455551 0.0782596
0.025796853 0.035361342 0.0891236 0.043703143 0.03565916 0.06655582 0.0343893 0.035910107
0.07836993 0.04040751 0.0537759 0.09764313 0.05764275 0.0367345 0.081149705 0.043074556
-6.4243e-41 1.2893e-40 -9.336e-41 -5.9662e-41 -8.9781e-41 9.2508e-41 -4.7152e-41 -9.7791e-41
1.24376e-40 0.035002135 0.061471 0.0077254074 0.054798346 0.09185748 0.052287035 0.042948455
0.08071549 0.053537667 0.0008058486 0.031181887 -0.003298343 0.016617836 0.046908725 0.012472074
0.005667104 0.035843216 0.0011904307 0.03442049 0.051432483 0.049533624 0.046924718 0.082335554
0.039061226 0.045945164 0.091522716 0.05276603 0.030736428 0.12341887 0.008525716 0.089088924
0.19081524 0.1165368 0.039946765 0.12204578 0.03181388 0.027479626 0.050534803 0.03100414
0.042778924 0.064112656 0.042706516 0.028897433 0.05197072 0.029982151 -4.2604e-41 -2.4485e-41
1.5647e-41 5.4875e-41 -1.39524e-40 -1.1706e-41 1.00489e-40 -2.494e-42 1.821e-41 -4.4165e-41
-6.8126e-41 6.4052e-41 -1.86021e-40 -1.88165e-40 6.687e-42 -1.47532e-40 4.3145e-41 -8.5802e-41
0.0227911 0.07332037 0.030771144 0.047114737 0.10731813 0.053616624 0.046990935 0.07690597
0.038041223 -9.6032e-41 -1.11399e-40 -1.04024e-40 1.91045e-40 -1.93704e-40 -1.47509e-40 1.51465e-40
6.85e-41 9.0487e-41 0.050676793 0.1082787 0.055915873 0.09061936 0.12010003 0.088414684
0.06437319 0.09969797 0.05847888 0.04728962 0.10732404 0.038921487 0.08554369 0.13014686
0.09010989 0.068909146 0.11621003 0.052158702 5.6953e-41 7.5293e-41 9.426e-41 5.6111e-41
-5.454e-42 -1.17049e-40 6.813e-42 1.2548e-40 -7.4192e-41 0.041963212 0.10659914 0.022670347
0.07062971 0.10577965 0.053195857 0.013086795 0.094162025 0.034026433 -0.008388272 0.032764636
-0.012468572 0.016827982 0.05807673 0.012766461 -0.003491899 0.037699047 -0.0075236904 0.04074702
0.09699655 0.0618481 0.089814276 0.11564519 0.06411649 0.02391088 0.1177285 0.028426401
0.0409784 0.13862921 0.04002254 0.099122405 0.19721246 0.09829148 0.039273318 0.13711274
0.038517218 0.04137983 0.06748326 0.04094507 0.057217363 0.08389731 0.056920066 0.039950576
0.06626773 0.039710805 -1.19968e-40 1.64627e-40 9.9e-43 -1.09444e-40 -1.00249e-40 -7.86e-41
9.1806e-41 -1.9037e-41 -6.8177e-41 -1.87761e-40 5.9664e-41 -6.255e-41 1.45853e-40 -1.18033e-40
-5.8553e-41 -1.23714e-40 2.00994e-40 1.2908e-40 0.039787557 0.09363109 0.039049648 0.06887554

e_conv5.bias f4 [3]
00000000: 8264 873e 6f73 6b3e a02f 3d3e
0.2644387 0.22993253 0.18475199
