snapshots/net2.pth (torch, 10623 bytes, 10 tensors)

e_conv1.weight f4 [3, 3, 1, 1]
00000000: c739 b5bc 3f72 763b b073 8f3c 84a4 03b8
00000010: 9002 6db7 1a82 34b7 26c6 8fbc ace0 523e
00000020: 6255 8f3e
-0.022122277 0.0037604717 0.017511219 -3.138605e-05 -1.4126897e-05 -1.0759128e-05 -0.01755054 0.20593518
0.2799483

e_conv1.bias f4 [3]
00000000: ef37 d63b 47d5 dbb8 863f a73e
0.0065374295 -0.0001048246 0.32665652

e_conv2.weight f4 [3, 3, 3, 3]
00000000: 9d49 0100 9ef9 0000 2087 0080 5911 0080
00000010: 7426 0080 ea22 0000 8d75 0080 c448 0100
00000020: ad58 0100 2c01 0080 3856 0180 2bff 0000
00000030: 6439 0000 5c66 0000 9411 0080 7e0e 0180
00000040: 1866 0080 4151 0000 c9e3 5eba b7d1 60ba
00000050: 2697 60ba 8274 5eba e269 60ba 1036 60ba
00000060: 42e6 5eba 84e1 60ba 9eb3 60ba d24b 0080
00000070: 4bf1 0000 8040 0000 e1b7 0080 4cc0 0080
00000080: 31a6 0000 08a2 0080 a206 0080 4f10 0000
00000090: e125 0180 b8b8 0100 0704 0100 2d3f 0100
000000a0: dc84 0080 8878 0000 71b2 0100 8fa0 0180
000000b0: a900 0100 bd1e 9bba ec3c 9bba ad38 9bba
000000c0: b925 9bba bb43 9bba 183f 9bba 0d33 9bba
000000d0: bc50 9bba a64b 9bba 3a99 0180 ba06 0100
000000e0: b8e4 0000 3208 0180 afa8 0000 2356 0000
000000f0: da08 0100 9014 0100 44b0 0080 5c19 0000
00000100: c090 0080 3f8b 0080 4ddf 0080 93da 0000
00000110: 2fec 0180 a486 0000 8043 0180 4c16 0100
00000120: cbaa caba 1b98 c9ba 50df ccba aedc caba
00000130: 2fc3 c9ba 2703 cdba 5eb5 caba 6791 c9ba
00000140: 22cc ccba
1.18243e-40 8.9546e-41 -4.8474e-41 -6.223e-42 -1.3794e-41 1.2525e-41 -4.2169e-41 1.17939e-40
1.23646e-40 -4.2e-43 -1.22765e-40 9.1537e-41 2.0588e-41 3.672e-41 -6.306e-42 -9.7034e-41
-3.6624e-41 2.9148e-41 -0.00085025706 -0.0008576172 -0.0008567445 -0.0008485989 -0.00085606996 -0.0008552978
-0.0008502939 -0.00085785263 -0.0008571687 -2.7199e-41 8.656e-41 2.3138e-41 -6.5963e-41 -6.8983e-41
5.9618e-41 -5.8126e-41 -2.38e-42 5.85e-42 -1.05424e-40 1.581e-40 9.328e-41 1.14499e-40
-4.7661e-41 4.3238e-41 1.55848e-40 -1.49433e-40 9.2072e-41 -0.0011834722 -0.0011843718 -0.0011842452
-0.0011836804 -0.0011845747 -0.0011844365 -0.0011840776 -0.0011849622 -0.0011848107 -1.46803e-40 9.4249e-41
8.2049e-41 -9.4775e-41 6.0512e-41 3.09e-41 9.5011e-41 9.9212e-41 -6.3232e-41 9.097e-42
-5.1927e-41 -4.9952e-41 -8.0105e-41 7.841e-41 -1.76562e-40 4.83e-41 -1.1605e-40 9.9834e-41
-0.0015462277 -0.0015380414 -0.0015630517 -0.0015477145 -0.0015393252 -0.0015641198 -0.0015465429 -0.0015378416
-0.0015624801

e_conv2.bias f4 [3]
00000000: 0afd 94ba 5a24 d0ba 9fff ddba
-0.0011366915 -0.0015879974 -0.0016937143

e_conv3.weight f4 [3, 6, 5, 5]
00000000: aa95 f63c 630e f63c 6ec4 f63c aaab f33c
00000010: 5b51 f23c e261 f83c 00c2 f73c be63 f83c
00000020: 3a3b f53c 16d8 f33c 3b2c fa3c c37b f93c
00000030: 850b fa3c a0d2 f63c b960 f53c 70b9 f83c
00000040: 71fd f73c a27e f83c 4033 f53c 21ae f33c
00000050: 815d f73c e29e f63c 2a15 f73c b8b7 f33c
00000060: db1a f23c c241 0180 1aea 0080 1e72 0180
00000070: 8f42 0180 9005 0180 7ad7 0180 9a8f 0100
00000080: 65b4 0000 023e 0180 b715 0000 45ef 0000
00000090: 7f67 0100 d752 0080 51ff 0000 c205 0000
000000a0: 391b 0180 b5f6 0080 a175 0180 687d 0180
000000b0: 502c 0180 e923 0200 02f4 0100 fc8c 0080
000000c0: 26f2 0180 326e 0000 c8a6 083c dd65 3bbc
000000d0: 0828 3c3d d016 4d3c e984 073a 0fcb e53c
000000e0: 156b 973c 728b 633d 72a5 943c 46b3 fc3b
000000f0: 2daf 653c 5f3e 8d3c 34b7 6d3d b241 d13c
00000100: fefb 413c c61d 3f3c d80c 743b 5fa1 123d
00000110: cc5c 0a3d b8a6 ab3c 4850 ba3a 62c6 4f3c
00000120: ae12 a63c 0fd9 cf3b 9af8 92b8 d429 0180
00000130: 5924 0000 036d 0100 db32 0100 2bc0 0100
00000140: e6b5 0000 99da 0180 7be6 0080 dee7 0180
00000150: 4a57 0100 bbe3 0080 ac60 0000 103a 0080
00000160: 5a20 0000 f019 0100 7dec 0080 0d1f 0080
00000170: dfa4 0000 892f 0180 e37d 0180 1304 0100
00000180: e89b 0100 82d1 0100 16ba 0180 b64c 0100
00000190: 4f3a 0000 d78d 0000 8216 0100 39cb 0000
000001a0: 8c03 0180 2948 0180 dc11 0100 eae4 0080
000001b0: a279 0100 493f 0080 a5b2 0000 ba24 0280
000001c0: a456 0180 862c 0000 b7b9 0100 c68c 0000
000001d0: 74bb 0180 59cf 0080 54a6 0180 8ff1 0100
000001e0: b12a 0080 8397 0080 3235 0100 6bc3 0080
000001f0: ece9 0100 1d05 0180 96a2 0080 d9ce 0180
00000200: d5da 0080 fa2b 0180 21e7 0000 378c 0180
00000210: 958b 0100 7cba 0000 c7ec 0080 81ea 0180
00000220: 3f75 0000 5c9c 0080 b927 0100 df17 0100
00000230: eb55 0180 4714 0100 382e 0200 f256 0080
00000240: bf09 0000 03e1 0180 6926 0200 dc54 0080
00000250: e481 0180 4701 0180 5bfb f83c 4611 f83c
00000260: ed7b f83c 75e9 f53c 2013 f53c 6155 fa3c
00000270: df52 f93c f9a9 f93c ee08 f73c 582b f63c
00000280: 14d1 fb3c 60bd fa3c af03 fb3c f252 f83c
00000290: 4868 f73c 318c fa3c db6d f93c fba5 f93c
000002a0: 3ee4 f63c 95e8 f53c 4a81 f93c 625f f83c
000002b0: 498d f83c 12bb f53c 1fa9 f43c 17f7 0180
000002c0: aa02 0100 b6f1 0000 fb1f 0180 7325 0180
000002d0: 8704 0080 7afd 0100 6b78 0180 4bbe 0100
000002e0: 5980 0100 c7d5 0100 03e5 0100 1321 0200
000002f0: 8696 0100 e188 0180 d35f 0000 ac20 0100
00000300: 1351 0100 9022 0180 38bc 0180 9b18 0100
00000310: 4fa4 0080 390e 0180 e287 0180 1070 0000
00000320: 3331 71bc 5f79 9a3c 861d 173c ac3d 573c
00000330: c9f3 9f3a aaf1 193b cfdd a43c 4655 ef3c
00000340: e63a 453c ad2e 9f3c 527a 853c f950 193a
00000350: c208 143d 5f30 323d fe82 e53b 492a 2d3c
00000360: a10e 963c 8f6a f73c 739b 833c 0eb5 52bb
00000370: 208c 4dbb 4818 883c df70 4c3c b569 1cbb
00000380: 2699 803b 0b37 0000 e6ac 0180 7c10 0200
00000390: 406d 0180 6732 0100 a4cc 0180 df91 0100
000003a0: 242d 0080 85b1 0180 be99 0080 83b2 0000
000003b0: ab27 0180 2a16 0000 987f 0180 4f2a 0280
000003c0: fb1a 0000 cd3a 0000 86a3 0180 b70b 0180
000003d0: e17c 0080 4bca 0100 4889 0100 f375 0000
000003e0: 2d2f 0100 08f4 0080 8921 0100 650c 0000
000003f0: 0e72 0080 7d36 0000 ec3d 0100 440b 0180
0.030100662 0.030036157 0.030122962 0.029744942 0.029579809 0.030320112 0.030243874 0.030320998
0.029935468 0.029766124 0.030538669 0.030454522 0.030523071 0.03012973 0.029953348 0.030361861
0.030272217 0.03033382 0.029931664 0.029746117 0.030195953 0.030105058 0.030161459 0.02975069
0.029553821 -1.15425e-40 -8.398e-41 -1.32773e-40 -1.15712e-40 -9.3831e-41 -1.69134e-40 1.4335e-40
6.4713e-41 -1.1408e-40 7.79e-42 8.5834e-41 1.28963e-40 -2.9717e-41 9.159e-41 2.066e-42
-1.01601e-40 -8.8502e-41 -1.34033e-40 -1.36823e-40 -1.07732e-40 1.96553e-40 1.79369e-40 -5.0576e-41
-1.78702e-40 3.953e-41 0.008340545 -0.01143786 0.045936614 0.012517646 0.00051696465 0.028050927
0.018483678 0.055552907 0.018145297 0.0077118007 0.014018816 0.017241655 0.058036044 0.025544021
0.011839865 0.011664813 0.00372391 0.035798427 0.033779904 0.020953521 0.00142146 0.0126815755
0.020272579 0.006343014 -7.008128e-05 -1.0684e-40 1.3039e-41 1.30942e-40 1.10079e-40 1.60772e-40
6.5253e-41 -1.70254e-40 -8.2681e-41 -1.75014e-40 1.23149e-40 -8.1694e-41 3.468e-41 -2.0829e-41
1.1606e-41 1.0114e-40 -8.4836e-41 -1.1139e-41 5.9145e-41 -1.08888e-40 -1.36995e-40 9.3297e-41
1.47764e-40 1.66993e-40 -1.5859e-40 1.19354e-40 2.0917e-41 5.0883e-41 9.991e-41 7.2903e-41
-9.3108e-41 -1.17722e-40 9.8242e-41 -8.2119e-41 1.35469e-40 -2.2702e-41 6.4086e-41 -1.96846e-40
-1.22916e-40 1.5972e-41 1.58457e-40 5.05e-41 -1.59081e-40 -7.4382e-41 -1.51503e-40 1.7849e-40
-1.5315e-41 -5.4352e-41 1.10918e-40 -7.0103e-41 1.75751e-40 -9.367e-41 -5.8325e-41 -1.66038e-40
-7.8502e-41 -1.07611e-40 8.2913e-41 -1.42135e-40 1.41908e-40 6.6898e-41 -8.494e-41 -1.7596e-40
4.206e-41 -5.6091e-41 1.06085e-40 1.00399e-40 -1.22657e-40 9.911e-41 2.00251e-40 -3.119e-41
3.496e-42 -1.72554e-40 1.9745e-40 -3.0442e-41 -1.38431e-40 -9.2294e-41 0.030393293 0.030281674
0.03033253 0.030018548 0.029916346 0.03055829 0.030435024 0.030476557 0.030155625 0.030049965
0.030739345 0.03060788 0.030641405 0.030312989 0.030201092 0.030584427 0.030447891 0.030474653
0.030138131 0.03001813 0.030457158 0.03031892 0.030340808 0.029996429 0.0298658 -1.80475e-40
9.2791e-41 8.671e-41 -1.03308e-40 -1.0527e-40 -1.624e-42 1.82766e-40 -1.35033e-40 1.601e-40
1.37878e-40 1.68524e-40 1.7399e-40 1.95536e-40 1.45833e-40 -1.40938e-40 3.4375e-41 1.03556e-40
1.2092e-40 -1.04234e-40 -1.59356e-40 1.00662e-40 -5.8943e-41 -9.6938e-41 -1.40581e-40 4.02e-41
-0.014721203 0.018856702 0.0092233475 0.013137262 0.0012203391 0.002348999 0.020125298 0.029215466
0.012037968 0.019431436 0.016293678 0.00058485527 0.036141165 0.04350316 0.007004141 0.010569164
0.018317522 0.030202178 0.016065335 -0.0032151374 -0.0031364039 0.01661314 0.012478082 -0.0023866717
0.0039245067 1.9746e-41 -1.5386e-40 1.89584e-40 -1.31027e-40 1.09916e-40 -1.65247e-40 1.44164e-40
-1.6193e-41 -1.55518e-40 -5.5152e-41 6.4038e-41 -1.06066e-40 7.951e-42 -1.37608e-40 -1.98848e-40
9.679e-42 2.1094e-41 -1.50497e-40 -9.6038e-41 -4.4798e-41 1.64405e-40 1.41083e-40 4.2312e-41
1.08759e-40 -8.7542e-41 1.03866e-40 4.446e-42 -4.0915e-41 1.9547e-41 1.14049e-40 -9.5877e-41

e_conv3.bias f4 [3]
00000000: 1d82 0abd 9a69 88bd ac60 043e
-0.033815492 -0.06660767 0.12927502

e_conv4.weight f4 [3, 6, 7, 7]
00000000: a806 993b 7898 ab3b 4ac3 113c d850 1d3d
00000010: 9052 a33c 0d6d 053c ce48 60bc b32d ef3c
00000020: f8bb 7c3c cd78 9f3c 9530 1d3d 299a 543c
00000030: 7f11 713c cc00 023c 3a53 923c 81dc b93c
00000040: 4733 0b3d 33cd 623d d198 0e3d f6f9 173d
00000050: aaaf 3c3c 1f80 9f3c 6206 b93c 19db 273d
00000060: 069b 4d3d ba17 493d 5c60 e43c cc27 f33b
00000070: 1713 b13c 89d2 c13c 5938 1d3d be66 913d
00000080: 8706 f13c 71a7 c33c ee73 103d a5a8 933c
00000090: 7aac 983c 6be6 d63c 6a96 1c3d cb84 d93c
000000a0: aaca 753c 8c24 073c eb63 7f3b d8d2 9ebc
000000b0: f458 0b3d f00b 533c 7717 a53c f53c 063c
000000c0: 5b5d 433b 9ab0 153b 08a5 223d fddb 973c
000000d0: 460d 233d 81b3 d03c 4d71 85bc 9f4d c53b
000000e0: d43b ee3b 2431 aa3c 7ca4 1d3d e7d5 333d
000000f0: be64 d63c f7ff 963c 0ae9 513c da09 5abc
00000100: 35b8 e93c 3fe7 203d a541 4b3d af54 093d
00000110: 9fe0 d63c 24c7 a23c b14d 1f3b eef8 133d
00000120: 57c0 363d a320 763d 9603 333d e3ec 153d
00000130: b8b8 db3c 7fe6 cc3c ef03 013d c064 433d
00000140: b22d 7e3d da28 213d ee8f d23c fd94 4a3c
00000150: 9f5d 8a3c 8984 533c 85d1 023d ecff 4a3d
00000160: d3be 5abc a8f8 a63c b358 3b3c 545f 363c
00000170: 78bb acbb ca32 d53c 30b1 2c3d e772 b23c
00000180: 3d24 663c 2cd9 af3a 299e ecbc 45f0 89bc
00000190: cf8f c2bb 9fb5 08bd 29c1 b4bb 428c 7cbc
000001a0: 818f 8cbc 6a66 babc bc3c 02bc e027 323b
000001b0: 52e2 aa3b 23b9 f03a 3c0f 24bc 89a3 9dbc
000001c0: 9226 d2bb 450d 2fba 16f6 b63b 3612 293c
000001d0: b5d0 d0ba cb5b b33b f14c 43bc becf fc3b
000001e0: 3116 8a3c 884c f73c 665d b83c 8726 513c
000001f0: d53a a93a 1268 29bc 6134 cbbb d8c9 19bc
00000200: 09ef 363c 7f33 a93c ccae 353c 1118 6eba
00000210: 1d0d 38bc 5f3c 63bc 44fb e9bb e037 66bc
00000220: 4328 37bb 11e2 893c c49f 95ba 1958 96bc
00000230: 0897 05bd 602d 6cbc e7f4 de3b a611 bebb
00000240: 5c55 7abb 9958 48bc 6b34 c6bc 8389 fa39
00000250: ad95 223c 8fd9 8b3c 1609 e23a 0220 433c
00000260: b824 2cbb 3659 a9bc 822e 943b 8b47 9e3b
00000270: 34b8 183c b953 963c b33a 703c 3486 823c
00000280: 113d c7b9 ed48 153c 286c d93a 0c58 b33c
00000290: f4f3 c33c 3c28 5e3c c863 8f3c 7382 783c
000002a0: 8b73 6b3c 5a81 073d f97a bf3c befe f23c
000002b0: 289e 973c 2108 c53c dcf7 143d 4b28 d13c
000002c0: 3377 563c f026 9f3c 806c d83c 7486 183c
000002d0: ba0d 9c3c f63e e33c ebc6 0a3c 0312 8a3b
000002e0: d15e e03c e245 3e3d dd1e 353c 1ce1 663c
000002f0: 3ecf c03b 31a0 793b 48e5 af3b 2413 673c
00000300: 626c a83c f52d 4f3c e1fd a63b 551c d83b
00000310: 850d 293c fd65 053d 4008 d83c 47de d83c
00000320: d7d8 6c3c 1172 7a3c f4e6 2c3c 0911 5e3c
00000330: 2834 8c3b 446f 943c 9fa5 b83c 0ccd b33c
00000340: d46f 943c b174 683c 9840 783c 5c1e 923c
00000350: 1af2 b5b8 eb10 fd3c be89 cc3c 016d 1c3d
00000360: 0121 973c ff41 de3c bf27 df3c 5e18 e13c
00000370: 815c f63c f7dc 323d 706c 833c eacc be3c
00000380: b2a6 b63c 8e07 b93c 4abe c93c e95f 053d
00000390: 33d9 de3c 1012 b83c 10c3 4c3c 9000 8b3c
000003a0: 7b95 853c e0a9 1d3d c721 4b3d 32b7 5e3c
000003b0: e2a1 913c fbcf 383d 3b5a 5f3c 81b2 2b3c
000003c0: bf07 683c c120 1bba 4921 8b3c 7615 6e3c
000003d0: 3a80 7e3b 4a01 d7bc 7994 34bc faa8 43bc
000003e0: c6de dabc a694 22bc 2840 3dbc b821 c8bc
000003f0: 7c78 7dbc 41b0 6bbc c2ff b9bb c5ff d0bc
0.004669983 0.0052366816 0.008896658 0.038407177 0.01993683 0.0081436755 -0.013689233 0.029196596
0.015425675 0.019466782 0.03837641 0.012976208 0.014713644 0.00793476 0.017861951 0.022688152
0.03398445 0.055371474 0.034813706 0.037103616 0.011516491 0.019470273 0.022586051 0.040980432
0.05019667 0.049094893 0.027877979 0.0074205156 0.021615548 0.023659961 0.038383815 0.07099675
0.029422058 0.023883553 0.03526681 0.018024752 0.01863693 0.026232919 0.038229384 0.026552578
0.015001932 0.00824846 0.0038969468 -0.019387648 0.03402038 0.012881264 0.02015279 0.008193244
0.0029810283 0.0022840858 0.039708167 0.018537516 0.03980758 0.02547622 -0.016289378 0.006021216
0.0072703157 0.020775385 0.038486943 0.043905165 0.026171084 0.0184326 0.0128119085 -0.013308013
0.02853022 0.039283033 0.04962315 0.033528026 0.026230155 0.019870348 0.0024307782 0.03612607
0.044617023 0.06008972 0.04370459 0.036602866 0.02682148 0.025012253 0.031497892 0.047703505
0.062055297 0.0393456 0.025703397 0.012364623 0.016890345 0.012910017 0.031938095 0.049560472
-0.01335116 0.02038224 0.011434722 0.011131126 -0.0052713715 0.026025195 0.042161167 0.021783305
0.014046726 0.0013416163 -0.02888401 -0.016838202 -0.0059375535 -0.033376332 -0.0055161905 -0.015414299
-0.017158272 -0.022753913 -0.0079490505 0.0027184412 0.0052149678 0.0018365722 -0.010013398 -0.019243019
-0.0064132893 -0.00066776975 0.005583535 0.010319283 -0.001593134 0.005473589 -0.0119202 0.0077151945
0.016856285 0.03018786 0.022505473 0.012765533 0.001291121 -0.010339754 -0.0062013124 -0.009386502
0.011165389 0.020654438 0.011089038 -0.00090825657 -0.011233595 -0.013869374 -0.007140549 -0.014051408
-0.0027947582 0.01683143 -0.0011415412 -0.018352555 -0.032614738 -0.014415115 0.006804097 -0.0058004437
-0.003819785 -0.012228155 -0.024194917 0.0004778617 0.009923381 0.017071513 0.001724514 0.011909487
-0.0026267003 -0.020672422 0.0045221457 0.004830306 0.009321261 0.018350469 0.0146624325 0.015933134
-0.00038001736 0.009111625 0.0016588019 0.02189257 0.023920037 0.013559397 0.017503634 0.01516782
0.014370809 0.033082344 0.023374068 0.029662486 0.018508032 0.024051728 0.03636919 0.025531908
0.013089943 0.019427747 0.026418924 0.0093094 0.019049514 0.027739983 0.008470277 0.004213573
0.027388962 0.046453364 0.011054722 0.014091756 0.00588408 0.0038089866 0.0053679086 0.014103685
0.020559493 0.012645234 0.0050961827 0.0065951743 0.010318165 0.032567967 0.026371121 0.026473178
0.0144559955 0.015285985 0.01055311 0.013553866 0.0042786784 0.018119462 0.022539912 0.02194836
0.01811973 0.014187978 0.015152119 0.017836742 -8.6758475e-05 0.030891856 0.024968024 0.03818989
0.018448355 0.027131079 0.027240632 0.02747744 0.030073406 0.04366776 0.016042918 0.02329107
0.022296283 0.02258661 0.02462687 0.03256217 0.027203178 0.02246955 0.012497678 0.016968042
0.01630663 0.038492084 0.04959276 0.013593482 0.017777387 0.04512022 0.013632352 0.01047957
0.014162003 -0.00059176615 0.016983645 0.014531484 0.0038833753 -0.026245732 -0.011021727 -0.011942143
-0.026717555 -0.009923136 -0.011550941 -0.02443014 -0.01547062 -0.014385284 -0.0056762407 -0.025512585

e_conv4.bias f4 [3]
00000000: 0ea2 7bbd b89f 84bd 3944 a13d
-0.061433844 -0.064757764 0.078743406

e_conv5.weight f4 [3, 12, 3, 3]
00000000: 332b b53c 1da9 003d b284 e53c 095e e83c
00000010: 0a60 163d 10a9 013d 0ec4 bf3c 59f7 013d
00000020: 76be d93c e512 0a3d dc7c 273d 3ce8 cf3c
00000030: 7642 1d3d 19de 283d b4f3 f83c 26c3 0e3d
00000040: 751f 203d 966a 103d 4d5a 3d3d 0def 983d
00000050: 7e5d 5f3d 51c5 433d 4d28 b13d d226 843d
00000060: 2a75 a13d ae9e a03d 7c28 623d 7075 b63c
00000070: 0384 ba3c 710e ca3c 7aa9 9e3c 403d c73c
00000080: 7d3d 0f3d cd62 8f3c dbc7 c33c d743 c13c
00000090: 4f6f 8e3c 84a6 a43c 3a10 8f3c 7e53 9d3c
000000a0: 6351 b23c 2bff c43c 0259 873c ed64 693c
000000b0: 771c 953c 5fae 1c3d 9960 443d 382b 1e3d
000000c0: c3ce d43c f080 183d b0c2 3a3d eef4 2e3d
000000d0: 1eb8 693d 7d3f 003d 9205 cf3c 68ca 113d
000000e0: a18d cb3c cdc9 323d f6b9 253d ab40 f53c
000000f0: 450e 2939 df7f 123d db4c c23c 5b26 b43c
00000100: 5724 fe3c 9b8e 163d 7532 b23c 5ac2 123d
00000110: 0f89 ac3c e521 113c 0c33 1c3d c8ea b43c
00000120: 5803 b33c 822c 7e3c b883 0d3c 6d68 d83c
00000130: a9a9 a03d 3e44 193d b00b f73c 05b7 0a3d
00000140: 5ae2 a53c 0201 943c 2dc0 e73c 81ae de3c
00000150: bcd4 b63c 890d 033d 95bd cf3c 1b51 a93c
00000160: 60a2 083d f92a fa3c f109 e13c 0dde 053d
00000170: 284b 9b3c 8341 fb3c dd79 2d3d 2711 023d
00000180: 9a0b ec3c d7ad 093d 49a3 f73c b946 863c
00000190: b03c d23c 68cf a93c 9a89 c23c c2f7 0a3c
000001a0: 6cd6 b83c 0266 8b3c 1ada ca3c 7748 e13b
000001b0: 14a9 e43c 5318 0f3d 0237 473d 5706 f53c
000001c0: cf70 1b3d a0fe 033d eac2 de3c 3f00 fa3c
000001d0: ebbd db3c cbaf 283d a230 373d 3b0a 133d
000001e0: 9556 1a3d fd35 423d 507d 1c3d 6b0b 443d
000001f0: 2714 323d 1ba4 223d adab 4f3d 15fd a33d
00000200: 3936 cb3c e6f0 7b3d 4e2d a73d eebb 673d
00000210: 4121 253d ed0f ae3d 18e4 5d3d 5fb7 ab3c
00000220: a86a 173d 0cbf 153d 56f5 be3c b9ca 1a3d
00000230: 0d5e f13c ae2d ad3c fd8a ec3c cf79 0b3d
00000240: 3907 a73c 9bb0 ce3c 219e d53b 34ec b93c
00000250: 6475 d03c 858a c33c dd57 e23c de02 993c
00000260: 19d4 bc3c 2ad0 373d 4415 293d 723e 4a3d
00000270: 0ec8 423d dc3c 693d 97ec 343d ad82 563d
00000280: 3968 163d 2fee 523d 4937 1e3c c48d 183d
00000290: 2f2a d93c ad7d 1a3c d9d1 3e3d 51b5 3eba
000002a0: 7586 6d3c a186 ef3c 502b 643c 90e4 6f3c
000002b0: 733a 1f3c 7d75 943c 8509 763c c406 103d
000002c0: 1c62 703c ec5c 743c 5ec2 a03c 3212 ab3c
000002d0: 7488 533c 20ff d83b d4db 013c ea18 d83c
000002e0: 9675 353d de58 a13c 692a 9bbb 70b7 d23c
000002f0: 31a6 523c c3a1 693c 57ce 313c 38f3 bf3c
00000300: 05c3 8e3c 7ada f53c 8698 6e3c e081 8f3c
00000310: cce7 e13c ce82 cf3c ce49 cb3c 367f 003d
00000320: e064 a03c 6e5e f03c e896 0f3d bd8a 563d
00000330: 308f e63c c71d 093d 762a 193d 9306 a43c
00000340: a3f7 f73c 34ae d63c c378 c73c cbbc fb3c
00000350: 1d29 2f3d 2250 043d 41b9 fb3c 6d0c b83c
00000360: c468 b19e 46bc c49e bbb5 e39e 6168 ab9e
00000370: eb05 c09e 04e7 dc9e d728 aa9e 8432 bb9e
00000380: f722 da9e bb16 8792 24a4 9a92 493d 0393
00000390: e41a 7f92 b76c 9292 e00d f792 3e22 8092
000003a0: 0a32 9492 e2da fb92 2619 96ae 72fc 99ae
000003b0: e47e 01af 5cea 94ae fff4 98ae 197e ffae
000003c0: 1e24 9dae 8e0b a2ae a5a8 03af e8af 1893
000003d0: fe2b 0f94 dcdf 8794 b039 6d93 1239 b693
000003e0: cff1 2a95 ab13 9393 0be1 6894 70be 7a94
000003f0: b44a 4d10 8fb0 908f 459b 9591 7703 9812
0.022115326 0.03141128 0.028017376 0.028365152 0.036712684 0.03165537 0.023408916 0.03173003
0.026580077 0.033709425 0.04089056 0.025379293 0.03839346 0.041227434 0.030389644 0.034854077
0.0390925 0.0352579 0.046228696 0.0746747 0.05453252 0.047795597 0.08650265 0.06452717
0.078836754 0.07842766 0.05521439 0.022272795 0.022768026 0.02466509 0.019367922 0.024321198
0.03497075 0.017503167 0.02389901 0.023591919 0.01738706 0.020098932 0.017463792 0.019204851
0.021767324 0.024047455 0.016521934 0.014245254 0.01820205 0.03825223 0.047943685 0.038615435
0.025977498 0.03723234 0.045595825 0.042714052 0.057060353 0.031310547 0.02527121 0.03559342
0.024847807 0.043649483 0.04046055 0.029938063 0.00016122412 0.03576648 0.023718288 0.021990946
0.031023188 0.036757093 0.021752575 0.03582988 0.021061448 0.008858179 0.03813462 0.022084609
0.02185218 0.015513541 0.008637361 0.026416982 0.0784486 0.037418596 0.03015694 0.033865947
0.020249534 0.018066887 0.028289879 0.02718282 0.022318237 0.03199533 0.025358954 0.020668557
0.033357978 0.03053807 0.02747056 0.032682467 0.018956736 0.030670887 0.042352546 0.03175464
0.028814126 0.033613052 0.030229228 0.016391145 0.025663704 0.020728782 0.023747254 0.008481922
0.022563182 0.017016415 0.024762202 0.0068750936 0.027912654 0.034935307 0.048636444 0.02991025
0.03794938 0.03222525 0.027192552 0.030517695 0.026823958 0.041183274 0.044724114 0.03589843
0.037680227 0.04741477 0.038205445 0.04786245 0.04347625 0.039707284 0.050700832 0.08007256
0.024806129 0.061509036 0.08162938 0.056575708 0.040314917 0.08499131 0.054172605 0.020961462
0.03696695 0.03655915 0.023310345 0.037790988 0.029463792 0.021139946 0.028874869 0.034051713
0.020389186 0.025230696 0.0065190946 0.022695638 0.025446601 0.023869762 0.027629787 0.018678125
0.023050355 0.044876255 0.041280046 0.04937596 0.04755407 0.056942806 0.044170942 0.052370716
0.03672049 0.05149668 0.009656736 0.037244573 0.026509373 0.0094293775 0.046586845 -0.0007274943
0.014497389 0.029239 0.013926342 0.014641896 0.009718525 0.018122429 0.015016918 0.035162702
0.014671829 0.014914732 0.019623931 0.0208827 0.012910951 0.00662221 0.007925946 0.026379067
0.04430159 0.019695695 -0.0047352803 0.025722235 0.012857006 0.014259758 0.010852418 0.023431405
0.017426977 0.030011404 0.014562732 0.017517984 0.02757635 0.025330927 0.024815466 0.031371318
0.019579351 0.029341903 0.035056025 0.052378405 0.028144449 0.033475664 0.03739401 0.020022666
0.03026945 0.026206113 0.024349576 0.030729672 0.042763818 0.032302983 0.030727984 0.022466863
-1.8783934e-20 -2.0830175e-20 -2.4109722e-20 -1.81485e-20 -2.0331238e-20 -2.3388952e-20 -1.8016341e-20 -1.9820288e-20
-2.3096109e-20 -8.525301e-28 -9.75923e-28 -1.656474e-27 -8.0496958e-28 -9.240696e-28 -1.5591312e-27 -8.086377e-28
-9.352449e-28 -1.5894286e-27 -6.8256775e-11 -7.002478e-11 -1.1777562e-10 -6.7718914e-11 -6.95568e-11 -1.1618457e-10
-7.145949e-11 -7.3689596e-11 -1.1974295e-10 -1.9271826e-27 -7.228331e-27 -1.3719813e-26 -2.9942048e-27 -4.5999535e-27
-3.452198e-26 -3.712741e-27 -1.1757389e-26 -1.2659332e-26 4.048667e-29 -1.4267504e-29 -2.3603747e-28 9.593403e-28

e_conv5.bias f4 [3]
00000000: a574 083b af38 5d3b ade2 07b6
0.0020821479 0.003375571 -2.024851e-06
